…
model = Sequential([
Conv2D(32, (3, 3), activation="relu", input_shape=(28, 28, 1)),
MaxPooling2D((2, 2)),
Flatten(),
Dense(100, activation="relu"),
Dense(10, activation="softmax")
])
from tensorflow.keras.optimizers import SGD
optimizer = SGD(learning_rate=0.01, momentum=0.9)
model.compile(optimizer=optimizer,
loss="sparse_categorical_crossentropy",metrics=["accuracy"])
model.summary()
Model: "sequential"
_________________________________________________________________
 Layer (type) Output Shape Param # 
=================================================================
 conv2d (Conv2D) (None, 26, 26, 32) 320 
 
 max_pooling2d (MaxPooling2D (None, 13, 13, 32) 0 
 ) 
 flatten (Flatten) (None, 5408) 0 
 dense (Dense) (None, 100) 540900 
 dense_1 (Dense) (None, 10) 1010 
=================================================================
Total params: 542,230
Trainable params: 542,230
Non-trainable params: 0
_________________________________________________________________
(x_train,y_train),(x_test,y_test) = mnist.load_data()
print(len(x_train), len(y_train))
60000 60000
model.fit(X_train, y_train, epochs=10, batch_size=32)
Epoch 1/10
1875/1875 [==============================] - 39s 20ms/step - loss: 0.2367 - accuracy: 0.9280
…
decoder = tf.keras.layers.Dense(hidden_dim1,activation='relu')(encoder)
decoder = tf.keras.layers.Dropout(0.2)(decoder)
decoder = tf.keras.layers.Dense(encoding_dim,activation='relu')(decoder)
decoder = tf.keras.layers.Dense(input_dim,activation='tanh')(decoder)
#Autoencoder
autoencoder = tf.keras.Model(inputs = input_layer,outputs = decoder)
autoencoder.summary()
Model: "model_2"
_________________________________________________________________
Layer (type) Output Shape Param #
=================================================================
input_3 (InputLayer) [(None, 30)] 0
dense_12 (Dense) (None, 14) 434
dropout_4 (Dropout) (None, 14) 0
dense_13 (Dense) (None, 7) 105
dense_14 (Dense) (None, 4) 32
dense_15 (Dense) (None, 7) 35
dropout_5 (Dropout) (None, 7) 0
dense_16 (Dense) (None, 14) 112
dense_17 (Dense) (None, 30) 450
=================================================================
Total params: 1168 (4.56 KB)
Trainable params: 1168 (4.56 KB)
Non-trainable params: 0 (0.00 Byte)
6
_________________________________________________________________
[49]: cp = tf.keras.callbacks.ModelCheckpoint(filepath="autoencoder_fraud.
↪h5",mode='min',monitor='val_loss',verbose=2,save_best_only=True)
#Define our early stopping
…
__________________________________________________________________________________________________
 Layer (type)                   Output Shape         Param #     Connected to                     
==================================================================================================
 input_1 (InputLayer)           [(None, 160, 160, 3  0           []                               
                                )]                                                                
                                                                                                  
 Conv1 (Conv2D)                 (None, 80, 80, 32)   864         ['input_1[0][0]']                
                                                                                                  
 bn_Conv1 (BatchNormalization)  (None, 80, 80, 32)   128         ['Conv1[0][0]']                  
                                                                                                  
 Conv1_relu (ReLU)              (None, 80, 80, 32)   0           ['bn_Conv1[0][0]']               
                                                                                                  
 expanded_conv_depthwise (Depth  (None, 80, 80, 32)  288         ['Conv1_relu[0][0]']             
 wiseConv2D)                                                                                      
                                                                                                  
 expanded_conv_depthwise_BN (Ba  (None, 80, 80, 32)  128         ['expanded_conv_depthwise[0][0]']
 tchNormalization)                                                                                
                                                                                                  
 expanded_conv_depthwise_relu (  (None, 80, 80, 32)  0           ['expanded_conv_depthwise_BN[0][0
 ReLU)                                                           ]']                              
                                                                                                  
 expanded_conv_project (Conv2D)  (None, 80, 80, 16)  512         ['expanded_conv_depthwise_relu[0]
                                                                 [0]']                            
                                                                                                  
...
Total params: 2,257,984
Trainable params: 0
Non-trainable params: 2,257,984
inputs = tf.keras.Input(shape=(160, 160, 3))
x = data_augmentation(inputs)
…
